…
[2025-12-08 12:59:09,251][1262326] Starting process rollout_proc14
[2025-12-08 12:59:09,260][1262546] RunningMeanStd input shape: (1,)
[2025-12-08 12:59:09,483][1262546] Created Actor Critic model with architecture:
[2025-12-08 12:59:09,484][1262546] ActorCriticSharedWeights(
  (obs_normalizer): ObservationNormalizer(
    (running_mean_std): RunningMeanStdDictInPlace(
      (running_mean_std): ModuleDict(
        (obs): RunningMeanStdInPlace()
      )
    )
  )
  (returns_normalizer): RecursiveScriptModule(original_name=RunningMeanStdInPlace)
  (encoder): ViTEncoder(
    (stem): ConvStem(
      (main): Sequential(
        (0): Conv2d(3, 32, kernel_size=(8, 8), stride=(4, 4))
        (1): ReLU()
        (2): Conv2d(32, 64, kernel_size=(4, 4), stride=(2, 2))
        (3): ReLU()
        (4): Conv2d(64, 128, kernel_size=(3, 3), stride=(1, 1), padding=(1, 1))
        (5): ReLU()
      )
    )
    (patch_embed): Conv2d(128, 256, kernel_size=(1, 1), stride=(1, 1))
    (transformer): TransformerEncoder(
      (layers): ModuleList(
        (0-2): 3 x TransformerEncoderLayer(
          (self_attn): MultiheadAttention(
            (out_proj): NonDynamicallyQuantizableLinear(in_features=256, out_features=256, bias=True)
          )
          (linear1): Linear(in_features=256, out_features=512, bias=True)
          (dropout): Dropout(p=0.0, inplace=False)
          (linear2): Linear(in_features=512, out_features=256, bias=True)
          (norm1): LayerNorm((256,), eps=1e-05, elementwise_affine=True)
          (norm2): LayerNorm((256,), eps=1e-05, elementwise_affine=True)
          (dropout1): Dropout(p=0.0, inplace=False)
          (dropout2): Dropout(p=0.0, inplace=False)
        )
      )
    )
    (ln): LayerNorm((256,), eps=1e-05, elementwise_affine=True)
  )
  (core): ModelCoreRNN(
    (core): GRU(256, 1024)
  )
  (decoder): MlpDecoder(
    (mlp): Identity()
  )
  (critic_linear): Linear(in_features=1024, out_features=1, bias=True)
  (action_parameterization): ActionParameterizationDefault(
    (distribution_linear): Linear(in_features=1024, out_features=24, bias=True)
  )
)
[2025-12-08 12:59:09,852][1262546] Using optimizer <class 'torch.optim.adam.Adam'>
[2025-12-08 12:59:11,563][1262546] No checkpoints found
[2025-12-08 12:59:11,564][1262546] Did not load from checkpoint, starting from scratch!
[2025-12-08 12:59:11,564][1262546] Initialized policy 0 weights for model version 0
[2025-12-08 12:59:11,566][1262546] LearnerWorker_p0 finished initialization!
…
